trained_model/graphgr_weights.ckpt (torch_old, 92486 bytes, 35 tensors)

convs.0.nn.0.weight f4 [32, 10]
-0.12350056 -0.011282786 0.17773072 -0.19304942 -0.2535231 0.23327257 -0.30564883 -0.27735
0.26032057 -0.0679884 0.09250308 0.10977121 -0.0938176 -0.03237941 -0.099029556 0.16767105
-0.15689112 0.090629764 -0.0042708805 0.091154344 -0.24260774 -0.14707614 -0.08413987 0.17743312
-0.016475633 0.1969135 -0.021260982 -0.41940808 0.2961657 0.070873104 0.056989253 0.043550096
-0.19285451 -0.22669479 -0.13002269 0.36926857 -0.37674913 -0.23456159 0.32749617 0.013534621
-0.00012803618 -7.88482e-06 -6.932525e-07 -0.00038461937 -0.00011503644 8.226415e-05 0.0002995086 1.7103688e-05
-0.0063683614 -5.4171414e-06 -0.30812058 -0.12527527 0.09477258 0.21544178 -0.16883065 0.10930912
-0.12616886 -0.22207893 -0.08220369 0.09176878 1.6323892e-15 -2.2075e-41 5.1866e-41 -4.7043185e-15
-1.0849817e-19 1.7199775e-21 6.9708016e-22 -4.1666655e-32 -1.0216773e-05 -4.1301793e-10 0.0042368006 -2.3615068e-05
-2.0362052e-10 -0.0032977632 -0.0045342995 0.0048113004 -0.00031094934 0.0029592165 -0.0021113271 -0.0027826033
0.0053277747 -0.010318008 0.0050825262 -0.028768212 -0.04318593 0.01446886 -0.00014752068 -0.026045226
-0.02044593 -0.0008043285 -0.0070879594 -0.10897969 0.055763572 0.192467 -0.21914114 0.25712425
-0.09078314 -0.18851162 -0.13961127 0.27621663 -0.18013246 0.020276112 -0.019551193 -0.05001399
-0.07875646 0.028304456 0.08156656 0.06715138 -0.06264599 0.062462766 0.31354827 0.00039763027
-0.098783426 -0.22065623 -0.119637795 0.11508819 0.21029827 -0.060496185 -0.00848582 -0.17763305
-0.09961111 -0.10725164 0.0037376455 -0.067682825 0.2850825 -0.17009991 0.07499996 0.24315119
-0.71016186 0.013843581 -0.33913383 0.24023825 -0.093666546 -0.2875128 0.1439717 -0.042262375
0.24085984 -0.034408495 -0.011778361 -0.011944302 0.08812052 -0.1492367 0.20379534 0.20150903
0.20765346 0.026712224 0.16028813 0.25750157 -0.29449558 -0.16983357 -0.007971914 -0.0070210504
0.007166325 -0.08544663 -0.064399995 0.048657764 -0.012448246 -0.019145317 -0.03588251 0.033227816
-0.29523036 0.006770662 -0.043009724 -0.26045936 0.26258436 -0.009000015 -0.13905649 0.022872102
-0.4878919 0.2286849 0.015040352 -0.00062519836 1.0740311e-05 -0.024466593 -0.026994484 0.019739717
-0.008196814 -0.0067128143 -0.017059162 -1.0728378e-05 0.14949743 -0.042941663 0.10271401 0.20163745
-0.023071889 0.3922709 -0.33122304 0.107140265 0.22672336 0.13866913 -0.005734348 -0.0023917658
0.0019574547 -0.035344392 -0.017616747 0.008792281 -0.0001249246 0.0022844865 -0.016507875 0.012759998
0.32395 -0.06319295 -0.15016805 0.17553748 -0.2655246 -0.13390295 0.19999366 -0.1445652
-0.12497042 0.015940117 0.26517224 -0.24543425 0.0071795764 0.29294512 0.28906992 -0.22380464
-0.113853216 -0.04806078 -0.4393858 0.0688981 0.0027793876 -0.0008696837 4.6186065e-06 -0.020677043
-0.014695893 0.0109281605 -0.004595243 -0.0040888316 -0.030850358 -0.003417027 -0.0784185 0.15232046
-0.03464789 0.23455083 0.37606388 -0.23494963 -0.19887398 0.29489502 -0.3999491 -0.44182086
0.006614934 -0.00041295082 9.152322e-05 -0.09883434 -0.05896755 0.041576218 -0.038062457 0.0022313697
0.010834433 0.02337569 0.3288614 0.17625919 -0.10823306 -0.3260731 0.13850409 0.13010247
00000000: dded fcbd 6fdb 38bc 0bff 353e bfae 45be
00000010: c8cd 81be 01df 6e3e 017e 9cbe d200 8ebe
00000020: bd48 853e 813d 8bbd 4172 bd3d bacf e03d
00000030: 7123 c0bd 46a0 04bd 02d0 cabd f6b1 2b3e
00000040: 11a8 20be 199c b93d bef2 8bbb 21af ba3d
00000050: 2a6e 78be 219b 16be 8651 acbd 07b1 353e
00000060: e8f7 86bc b1a3 493e 832b aebc a8bc d6be
00000070: 08a3 973e eb25 913d 906d 693d 9661 323d
00000080: a77b 45be ae22 68be ab24 05be c510 bd3e
00000090: 43e5 c0be ea30 70be 94ad a73e 51c0 5d3c
000000a0: 7341 06b9 0b49 04b7 f317 3ab5 bda6 c9b9
000000b0: b83f f1b8 3b85 ac38 5d07 9d39 e479 8f37
000000c0: b0ad d0bb e4c4 b5b6 fbc1 9dbe 2948 00be
000000d0: 2018 c23d c59c 5c3e f1e1 2cbe 76dd df3d
000000e0: 6932 01be a968 63be 695a a8bd 45f1 bb3d
000000f0: 8840 eb26 893d 0080 9590 0000 ae7d a9a7
00000100: 8f17 00a0 34f5 011d f7ad 521c 7c58 588b
00000110: b568 2bb7 1b0f e3af dcd4 8a3b f918 c6b7
00000120: 15e2 5faf 491f 58bb 7694 94bb 1da8 9d3b
00000130: ea06 a3b9 6aef 413b 315e 0abb 565c 36bb
00000140: 9d94 ae3b dd0c 29bc 528b a63b 50ab ebbc
00000150: bbe3 30bd cc0e 6d3c c8af 1ab9 cc5c d5bc
00000160: 397e a7bc 92d9 52ba 1d42 e8bb be30 dfbd
00000170: 5868 643d 1216 453e 8966 60be caa5 833e
00000180: 83ec b9bd 3109 41be 42f6 0ebe 446c 8d3e
00000190: a574 38be 171a a63c d329 a0bc 78db 4cbd
000001a0: 114b a1bd bfde e73c 5e0c a73d aa86 893d
000001b0: 8a4c 80bd f5d8 7f3d 6689 a03e 0879 d039
000001c0: f74e cabd b5f3 61be a904 f5bd 5bb3 eb3d
000001d0: 6e58 573e d9ca 77bd 1c08 0bbc 70e5 35be
000001e0: e900 ccbd bfa6 dbbd 49f3 743b 4b9d 8abd
000001f0: 55f6 913e ac2e 2ebe 9499 993d a0fc 783e
00000200: 2bcd 35bf 30d0 623c f3a2 adbe 0401 763e
00000210: 3fd4 bfbd e134 93be 516d 133e 501b 2dbd
00000220: f6a3 763e ecef 0cbd 07fa 40bc 09b2 43bc
00000230: 8878 b43d 81d1 18be baaf 503e 6258 4e3e
00000240: 1ca3 543e 98d3 da3c 9222 243e 3fd7 833e
00000250: 20c8 96be dae8 2dbe a19c 02bc d710 e6bb
00000260: 7ed3 ea3b a5fe aebd 25e4 83bd 5d4d 473d
00000270: baf3 4bbc a4d6 9cbc 8af9 12bd e419 083d
00000280: 6f28 97be 6edc dd3b f72a 30bd ee5a 85be
00000290: 7571 863e cd74 13bc d364 0ebe 465e bb3c
000002a0: f8cc f9be 602c 6a3e cf6b 763c 5ae4 23ba
000002b0: 4931 3437 2a6e c8bc 8923 ddbc 30b5 a13c
000002c0: ee4b 06bc 2bf7 dbbb a8bf 8bbc 08fe 33b7
000002d0: db15 193e 99e3 2fbd b95b d23d 0c7a 4e3e
000002e0: 4201 bdbc bbd7 c83e 1196 a9be 5b6c db3d
000002f0: 2b2a 683e 48ff 0d3e 33e7 bbbb 2cbf 1cbb
00000300: a448 003b 48c5 10bd ff50 90bc 800d 103c
00000310: 31fe 02b9 53b7 153b 863b 87bc 500f 513c
00000320: c6dc a53e 4e6b 81bd a7c5 19be 19c0 333e
00000330: d7f2 87be db1d 09be 23cb 4c3e e608 14be
00000340: 7ef0 ffbd d994 823c a8c4 873e 1e53 7bbe
00000350: a742 eb3b e7fc 953e f900 943e 0b2d 65be
00000360: e02b e9bd 61db 44bd 2df7 e0be 721a 8d3d
00000370: 6326 363b 7cfb 63ba 87f9 9a36 e762 a9bc
00000380: 0bc7 70bc 070c 333c b193 96bb 9bfb 85bb
00000390: e4b9 fcbc 33f0 5fbb e199 a0bd e5f9 1b3e
000003a0: f2ea 0dbd 182e 703e 728b c03e a396 70be
000003b0: 9fa5 4bbe 7bfc 963e 21c6 ccbe 5836 e2be
000003c0: 17c2 d83b 5281 d8b9 28f0 bf38 a969 cabd
000003d0: f587 71bd d34b 2a3d 61e7 1bbd 2c3c 123b
000003e0: e882 313c 607e bf3c 8560 a83e 4a7d 343e
000003f0: 4ba9 ddbd 0ef3 a6be 04d4 0d3e 9539 053e

convs.0.nn.0.bias f4 [32]
0.09404873 -0.010669852 -0.17916998 0.06900336 -4.3503926e-05 -0.26632974 -8.022984e-27 -0.0027856787
-0.036398884 -0.30219933 -0.00936938 0.06179457 0.20260039 -0.014576169 0.17027448 -0.052061357
0.2425761 -0.017262312 0.022879226 -0.01658049 0.047778487 -0.010496861 -0.012371343 -0.048687596
-0.01965201 0.16040853 0.009110715 0.059161995 0.2967813 -0.013293688 0.10934399 -9.052615e-09
00000000: 9f9c c03d 9ad0 2ebc 5678 37be a251 8d3d
00000010: fc77 36b8 5f5c 88be 5de9 1e94 ef8f 36bb
00000020: ff16 15bd dfb9 9abe 0782 19bc 4e1c 7d3d
00000030: 7a76 4f3e e2d0 6ebc 6f5c 2e3e 4a3e 55bd
00000040: df65 783e b169 8dbc 376d bb3c cfd3 87bc
00000050: 60b3 433d 07fb 2bbc 2cb1 4abc a56c 47bd
00000060: 41fd a0bc 2242 243e 1c45 153c d953 723d
00000070: b8f3 973e c5cd 59bc beef df3d d285 1bb2

convs.0.nn.2.weight f4 [32, 32]
0.38144037 0.081104964 0.20136082 0.29871938 -1.6759544e-05 0.10289005 -3.9463185e-10 0.0073911166
0.0060136747 -0.029555155 -0.052328568 0.033335138 -0.08404468 0.010017875 -0.07854494 -0.008186457
-0.12867437 -0.013276225 0.1068118 -0.0024138237 -0.013945896 0.12403566 0.0010028679 -0.16265534
-0.0021048712 0.07577274 -0.09244746 0.089312896 -0.4461632 -0.00093147816 -0.06860261 -3.8883745e-06
-0.22165917 0.018757489 -0.07471465 -0.14074552 3.5758472e-07 -0.13475186 -6.3199e-41 6.0101156e-05
-0.043562934 -0.13525379 -0.038694575 -0.07787899 -0.1732985 -0.006924395 0.19561628 -0.019925153
-0.32477087 -0.0021494532 0.050645962 -0.0025221056 0.043110408 0.24936883 1.8205088e-05 0.10432272
-0.0012762141 0.2131434 0.083716676 -0.04249196 0.22118051 0.001685299 -0.051002793 2.894132e-10
-0.047362696 0.0021837177 0.19631444 -0.085053906 -8.3808277e-07 0.14652056 -2.5753e-41 2.9909062e-16
0.020775018 0.16740488 0.0136333145 -0.21473624 -0.14740063 -0.12999193 0.047989216 0.005214969
0.06199931 -0.00016439972 0.038693648 -0.00096977 -0.14122298 -0.07473246 2.7740532e-10 -0.11013654
-0.00041115377 0.17834944 0.2152568 0.07155461 0.24391165 0.0018932596 0.005075391 1.1258583e-11
0.2960936 -0.020730913 0.1846579 0.15378137 1.890425e-09 0.025147736 2.6367859e-23 0.0039590867
0.009579846 -0.033785556 -0.007701074 0.15791471 -0.05744275 0.09281168 -0.11992306 0.0044687167
-0.07130922 0.00793719 0.014049908 -6.039836e-06 -0.1333947 -0.02845193 4.7083035e-05 -0.015816897
0.011018592 -0.346108 -0.06605257 -0.07937923 -0.36012214 0.00059364265 0.037119042 -4.7250962e-15
-0.029746966 0.10451636 0.06521894 0.32452244 -3.194407e-07 -0.106454454 -2.13e-42 4.8018815e-06
-0.0002506211 -0.037231047 0.0004550401 0.0015798445 -0.05296973 0.0025216425 0.004705725 -0.0021702528
0.032813635 0.0041564885 0.17339924 -0.00139188 0.05164776 0.1275465 1.2010098e-07 0.08645994
-0.00011227759 0.074267805 -0.027182061 0.13000683 -0.22793065 -0.0033771629 0.2473882 3.104467e-11
-0.04712365 -0.072427385 -0.42671818 -0.10889261 -7.265323e-05 -0.27639574 -3.562e-42 0.00033406465
0.022668721 -0.057972148 -0.07695791 0.061394777 0.41297564 0.012636709 0.042825043 -0.003367223
-0.015837127 1.2850344e-07 -0.23150972 -4.8070546e-05 -0.04762696 0.13079962 4.616794e-09 -0.05755183
-1.3287431e-31 0.05838947 -0.18809193 0.038895436 0.040509243 0.007843461 -0.24996753 8.2182465e-09
0.28299704 0.032479323 0.1351461 0.18651834 -4.6881173e-06 0.13499779 -1.0817653e-12 -0.0034706504
-0.014980016 -0.061252642 -0.0012583548 -0.11075489 0.5244547 -0.15745282 0.16561759 0.0036109942
0.21423727 0.01250514 -0.014069032 -0.00095049915 0.18278039 0.11968948 0.0009555763 0.21031336
-0.0019940832 0.17732485 0.14400901 0.18836622 -0.12050163 0.01175284 0.16147402 -1.0035929e-11
0.009293259 -0.07061553 -0.14336061 -0.009280662 2.0383804e-05 -0.2503529 -3.8024e-41 4.1013755e-06
0.041274764 -0.19908817 0.0032509526 -0.06371583 0.1531033 0.13720852 0.1673263 -0.009966624
-0.25710818 -0.014218106 0.15791628 -9.864039e-05 -0.095008075 0.2506282 0.0001363049 0.05776023
-4.7382036e-07 -0.063230515 -0.16341047 -0.115384236 -0.13134433 -0.0017562653 -0.42507446 4.1256748e-10
00000000: 274c c33e 5c1a a63d 8831 4e3e bff1 983e
00000010: d996 8cb7 05b8 d23d 7ff3 d8af 2e31 f23b
00000020: 5c0e c53b a71d f2bc 7b56 56bd 6d8a 083d
00000030: 9e1f acbd 0322 243c 2bdc a0bd 7d20 06bc
00000040: 37c3 03be 8684 59bc 25c0 da3d 3e31 1ebb
00000050: 547d 64bc 6806 fe3d aa72 833a 1f8f 26be
00000060: e1f1 09bb bd2e 9b3d 1855 bdbd aee9 b63d
00000070: 816f e4be 712e 74ba 867f 8cbd e278 82b6
00000080: 9ffa 62be 4ea9 993c ff03 99bd 981f 10be
00000090: 12fa bf34 64fc 09be 2cb0 0080 2015 7c38
000000a0: 0c6f 32bd f87f 0abe 347e 1ebd 057f 9fbd
000000b0: 2975 31be 09e6 e2bb a24f 483e 133a a3bc
000000c0: 5e48 a6be d7dd 0cbb 2472 4f3d e949 25bb
000000d0: 8a94 303d 8b5a 7f3e 21b7 9837 26a7 d53d
000000e0: a446 a7ba 4342 5a3e a673 ab3d 0d0c 2ebd
000000f0: 257d 623e 40e5 dc3a 4ee8 50bd 491b 9f2f
00000100: 63ff 41bd b41c 0f3b a706 493e be30 aebd
00000110: 9cf8 60b5 7c09 163e ca47 0080 fc69 ac25
00000120: 5f30 aa3c 2f6c 2b3e 445e 5f3c d1e3 5bbe
00000130: 31f0 16be 9b1c 05be 5790 443d 55e2 aa3b
00000140: fdf2 7d3d b762 2cb9 3b7d 1e3d 2a38 7eba
00000150: c29c 10be 550d 99bd 5481 982f 448f e1bd
00000160: 2090 d7b9 3ca1 363e 476c 5c3e 398b 923d
00000170: fac3 793e 4027 f83a 774f a63b 2610 462d
00000180: 9599 973e e0d3 a9bc f616 3d3e dd78 1d3e
00000190: b5e8 0131 a002 ce3c a803 ff19 3abb 813b
000001a0: c9f4 1c3c b962 0abd 4a59 fcbb 65b4 213e
000001b0: 1749 6bbd 0d14 be3d 399a f5bd 506e 923b
000001c0: 910a 92bd fd0a 023c 9631 663c cca9 cab6
000001d0: 9f98 08be 0614 e9bc 067b 4538 7092 81bc
000001e0: 5387 343c 1135 b1be 9246 87bd 9491 a2bd
000001f0: ee61 b8be af9e 1b3a 230a 183d 523d aaa7
00000200: e9af f3bc ac0c d63d 8291 853d ce27 a63e
00000210: 987f abb4 cb04 dabd f005 0080 d91f a136
00000220: cb65 83b9 957f 18bd 7392 ee39 c912 cf3a
00000230: caf6 58bd 2442 253b 7b32 9a3b cd3a 0ebb
00000240: 9767 063d 2733 883b 928f 313e be6f b6ba
00000250: 9a8c 533d 8d9b 023e 1bf5 0034 e911 b13d
00000260: 9276 ebb8 b819 983d eaac debc 8320 053e
00000270: a766 69be 6453 5dbb 5553 7d3e 3189 082e
00000280: ba04 41bd cf54 94bd ce7a dabe 1703 dfbd
00000290: 685d 98b8 be83 8dbe ee09 0080 6625 af39
000002a0: c1b3 b93c 3474 6dbd 1c9c 9dbd 1779 7b3d
000002b0: 8b71 d33e 330a 4f3c 5069 2f3d a1ac 5cbb
000002c0: ddbc 81bc c2fa 0934 e210 6dbe 5b9f 49b8
000002d0: 7d14 43bd 56f0 053e c0a1 9e31 78bb 6bbd
000002e0: 107b 2c8c cc29 6f3d 2c9b 40be d250 1f3d
000002f0: 05ed 253d dc81 003c 7df7 7fbe 3b30 0d32
00000300: fde4 903e 0a09 053d bd63 0a3e aafe 3e3e
00000310: 9f4e 9db6 dc3c 0a3e b43e 98ab da73 63bb
00000320: be6e 75bc 0de4 7abd 61ef a4ba 76d3 e2bd
00000330: aa42 063f 503b 21be a897 293e 6ea6 6c3b
00000340: 0461 5b3e 5ce2 4c3c cc81 66bc eb2a 79ba
00000350: c82a 3b3e c21f f53d a47f 7a3a 635c 573e
00000360: 2aaf 02bb a594 353e 1977 133e 13e3 403e
00000370: 8fc9 f6bd fc8e 403c 7259 253e ce8d 30ad
00000380: c142 183c e09e 90bd 20cd 12be eb0d 18bc
00000390: e3fd aa37 412e 80be ff69 0080 8c9e 8936
000003a0: ba0f 293d c5dd 4bbe ef0d 553b 727d 82bd
000003b0: 1dc7 1c3e 6480 0c3e 9657 2b3e 0d4b 23bc
000003c0: afa3 83be 0ff3 68bc ceb4 213e 28dd ceb8
000003d0: 9893 c2bd 5752 803e 11ed 0e39 fe95 6c3d
000003e0: 6061 feb4 007f 81bd 1355 27be 924e ecbd
000003f0: 217f 06be 7c32 e6ba 5ca3 d9be b6cf e22f

convs.0.nn.2.bias f4 [32]
-0.1487324 0.14339103 0.1060541 -0.014751611 0.16306707 0.008365609 0.10515126 0.21465434
-0.14455792 0.02310335 -0.000487267 0.17684908 -0.026969537 -0.19255905 -0.0009343814 0.05679755
-8.579914e-13 0.00026096147 -0.099014774 0.11393212 0.009212315 0.040656596 -0.013584885 -0.3082969
0.29226106 0.08102168 0.0010663546 -0.03609958 -0.0024199975 -0.06772217 -0.023096316 0.023811694
00000000: 4e4d 18be 19d5 123e e432 d93d beb0 71bc
00000010: 0efb 263e e80f 093c 8b59 d73d 59ce 5b3e
00000020: fe06 14be 3d43 bd3c df77 ffb9 ed17 353e
00000030: 38ef dcbc 332e 45be 46f1 74ba 8ca4 683d
00000040: cc80 71ab a8d1 8839 42c8 cabd 3e55 e93d
00000050: 40ef 163c 8887 263d 2393 5ebc 17d9 9dbe
00000060: 3ea3 953e b2ee a53d ecc4 8b3a 27dd 13bd
00000070: d298 1ebb ecb1 8abd 7c34 bdbc be10 c33c

convs.0.nn.4.module.weight f4 [32]
1.2267078 0.93970597 0.5047067 0.9000674 0.48100758 1.0502523 0.87987345 1.0481677
0.98108053 0.30656844 0.96839297 0.5536999 0.0016872522 1.0380044 -0.00019141998 0.84265643
0.00028714267 0.6286495 0.8405004 0.75714153 0.7886404 0.8034188 0.7022479 0.67976457
1.1229713 0.5487904 0.9123933 0.07678403 0.66156626 0.93575335 0.79440725 -0.014629524
00000000: c304 9d3f 9290 703f 7534 013f d16a 663f
00000010: a046 f63e ab6e 863f 633f 613f 5c2a 863f
00000020: 1828 7b3f 8af6 9c3e 9ae8 773f 47bf 0d3f
00000030: ca26 dd3a 54dd 843f e9b7 48b9 55b8 573f
00000040: a38b 9639 2cef 203f 092b 573f 07d4 413f
00000050: 56e4 493f dbac 4d3f 85c6 333f 0d05 2e3f
00000060: 86bd 8f3f 877d 0c3f 9b92 693f f240 9d3d
00000070: 685c 293f 888d 6f3f 465e 4b3f acb0 6fbc

convs.0.nn.4.module.bias f4 [32]
0.13480803 0.16104047 -0.12227655 0.13386178 -0.061023057 -0.02029633 0.10629213 0.27562875
0.09424243 -0.06947418 0.16885744 -0.009342339 -0.0013335096 0.05310781 -0.103091836 -0.121695146
0.0010172955 0.074131995 0.06460259 0.08258705 -0.10676436 0.028464988 -0.11866403 0.028225042
-0.0138301095 0.021744825 -0.011085557 0.0035480717 0.015339901 0.13402826 0.04572484 -9.9056146e-05
00000000: 1e0b 0a3e cbe7 243e 216c fabd 1013 093e
00000010: 50f3 79bd 7d44 a6bc b0af d93d 361f 8d3e
00000020: 2d02 c13d 7b48 8ebd f7e8 2c3e 9c10 19bc
00000030: 28c9 aeba 9387 593d d021 d3bd 4e3b f9bd
00000040: c656 853a 84d2 973d 5d4e 843d 6623 a93d
00000050: 46a7 dabd 682f e93c 2106 f3bd 3438 e73c
00000060: af97 62bc 3422 b23c 32a0 35bc c486 683b
00000070: 3554 7b3c b43e 093e f849 3b3d 5dbc cfb8

convs.0.nn.4.module.running_mean f4 [32]
0.4849694 0.3005126 0.4563165 0.3335728 0.66639113 0.05064572 1.0336052 0.1490434
0.17046534 6e-45 0.3172709 0.7411265 3.242576e-05 0.64086056 6e-45 0.049698964
6e-45 0.6187415 0.5718978 0.25093198 0.10256581 0.078022026 0.0037435163 0.16367802
0.24747394 0.11418044 1.0254799 6e-45 0.24636489 0.08304494 0.21037148 0.13291247
00000000: e94d f83e cadc 993e 51a2 e93e 0eca aa3e
00000010: 9c98 2a3f e371 4f3d 2d4d 843f d59e 183e
00000020: 778e 2e3e 0400 0000 5571 a23e 77ba 3d3f
00000030: e500 0838 700f 243f 0400 0000 2491 4b3d
00000040: 0400 0000 d865 1e3f e567 123f 287a 803e
00000050: 060e d23d 03ca 9f3d c855 753b 369b 273e
00000060: cf69 7d3e 6fd7 e93d ed42 833f 0400 0000
00000070: 1447 7c3e 7713 aa3d 9f6b 573e 351a 083e

convs.0.nn.4.module.running_var f4 [32]
0.22567031 0.147666 0.0774613 0.16387075 0.26128042 0.021387294 0.13364486 0.035036214
0.08344969 6e-45 0.062470675 0.3255512 3.0660308e-07 0.20710681 6e-45 0.011641681
6e-45 0.08517915 0.13517104 0.18450932 0.027677217 0.021443281 0.0009015398 0.11984245
0.09859399 0.043848928 0.128757 6e-45 0.17496537 0.04584411 0.111529864 0.026059104
00000000: 1e16 673e c235 173e 08a4 9e3d bccd 273e
00000010: 8cc6 853e 6834 af3c 33da 083e 2282 0f3d
00000020: ace7 aa3d 0400 0000 40e1 7f3d a6ae a63e
00000030: 359b a434 cf13 543e 0400 0000 c0bc 3e3c
00000040: 0400 0000 6872 ae3d 476a 0a3e 03f0 3c3e
00000050: 55bb e23c d2a9 af3c 5055 6c3a f56f f53d
00000060: a5eb c93d ef9a 333d e0d8 033e 0400 0000
00000070: 1f2a 333e 09c7 3b3d c569 e43d e779 d53c

convs.1.nn.0.weight f4 [32, 32]
0.10746903 0.20382866 0.015701415 0.07429198 0.07912527 0.53849804 -0.065347776 0.20770471
-0.03894496 0.029396726 0.116355285 0.0052877353 -0.0109966155 -0.073017016 0.092590414 -0.07748102
0.030013222 0.037922073 -0.04500741 -0.020509163 -0.050103042 0.030231858 0.043445412 0.047633864
0.20271203 0.080086805 0.16075596 -0.013400162 0.053058397 0.2610833 -0.014528439 -0.051506337
0.049115185 0.05905113 -0.027737355 -0.007732527 -0.011687146 0.06700571 0.00509221 -0.056495994
0.010006879 0.010791776 -0.041217957 0.040491905 -0.0037958832 0.04195246 0.06353454 -0.0686057
-2.0882202e-05 0.052289877 -0.038784325 -0.061082736 -0.025949111 0.015443784 0.02974536 -0.045264017
0.02291346 0.061734304 0.10176292 -0.0039142636 -0.0563287 0.06577538 0.016295495 0.003033872
-0.27739805 0.2029 0.15786383 -0.30246168 -0.09769705 -0.13440728 -0.31975177 -0.09345536
-0.121738374 0.14625451 -0.07593913 -0.031134183 0.0060335435 -0.22752425 0.09632039 0.115407765
-0.028745048 -0.0758869 -0.23261024 0.11105477 0.0934409 -0.0876721 0.14232405 -0.017910372
0.2856551 0.10365677 -0.25889662 0.013223773 0.038337305 -0.26005244 -0.2469874 0.042604018
-0.054112032 0.20361756 0.090875715 0.014840372 0.041919183 0.26415363 0.15418574 0.2560921
-0.15053272 -0.04072613 0.24473391 -0.06669273 0.014293823 0.06825 0.037344784 -0.0014455455
0.016040422 0.0330585 0.15986343 -0.09359805 -0.0078029 -0.029794542 0.061422363 0.0023995321
-0.076971486 0.15098527 -0.034702946 -0.031022388 -0.01156732 0.19353777 -0.0053469017 -0.017116144
0.06633708 0.023109509 0.11823619 0.26646966 0.0132578695 0.12355555 0.19058026 0.070089236
0.059829257 -0.097651795 0.11127534 0.040525746 0.0051114694 0.11294888 -0.08790518 0.19653733
-0.047048517 0.033840973 0.19775471 0.13697967 0.014992641 0.10258254 -0.24034107 0.2207214
-0.04250652 -0.14042306 0.1423383 -0.013576947 0.10935423 0.16525866 0.21442209 0.014356163
-0.1977428 -0.022080557 0.114054024 -0.0856942 0.0137277255 0.04230597 -0.015099869 0.091917045
0.17447162 -0.03804671 -0.016972436 -0.030330183 0.007635338 -0.08084811 0.055742487 0.12311869
0.024982683 -0.10763837 -0.14410403 0.020407505 0.05291683 -0.15111639 -0.119883806 0.049188066
-0.2351054 -0.06142905 0.07886487 -0.012758425 0.0038834969 -0.104673974 -0.0030050164 -0.016018355
0.0023979724 -0.0005602721 0.0037994743 -0.021636525 0.003418367 -0.017353572 0.0146413725 -0.019048728
-0.058536254 0.0036065895 0.0090453895 0.009332699 -8.008094e-05 -0.023685766 0.01219288 -0.018198749
-0.00040728276 0.014762219 0.0013957554 -0.030077256 -0.002121833 -0.0067748544 0.013898164 0.027178979
0.01983297 0.02727874 0.04000297 -0.00053020637 -0.00862177 -0.016154012 -0.0035686174 0.0021788334
0.12956539 0.0010085227 0.19715141 0.08874662 0.10288891 0.24713786 0.15151355 -0.12175051
0.15487078 0.051564705 0.02431658 -0.023623932 0.0014693337 0.10926223 -0.094560616 0.058225594
-0.018859806 0.05300599 0.28014696 0.22639692 0.0635801 0.034028694 -0.013662836 0.16106847
0.0731204 -0.254374 0.19111675 0.013281001 0.22002536 0.17643696 0.27181965 -0.005654437
00000000: b918 dc3d 76b8 503e 41a0 803c 6526 983d
00000010: 6e0c a23d 02db 093f 0ed5 85bd 8bb0 543e
00000020: c084 1fbd 67d1 f03c ae4b ee3d bd44 ad3b
00000030: 262b 34bc f289 95bd 0ba0 bd3d 5eae 9ebd
00000040: 4ade f53c 2d54 1b3d b159 38bd d502 a8bc
00000050: d938 4dbd cda8 f73c d1f3 313d ba1b 433d
00000060: be93 4f3e 8d04 a43d 369d 243e 5a8c 5bbc
00000070: c353 593d b6ac 853e b108 6ebc 4ff8 52bd
00000080: 012d 493d 99df 713d 7339 e3bc 2361 fdbb
00000090: 717b 3fbc 4a3a 893d 8edc a63b 5868 67bd
000000a0: e5f3 233c fdcf 303c 29d4 28bd d7da 253d
000000b0: 5ac4 78bb 58d6 2b3d 661e 823d 2581 8cbd
000000c0: 302c afb7 e92d 563d 50dc 1ebd e431 7abd
000000d0: 3b93 d4bc ed07 7d3c 8bac f33c c366 39bd
000000e0: 02b5 bb3c 1cdd 7c3d 1469 d03d 3943 80bb
000000f0: ecb8 66bd 3eb5 863d 217e 853c edd3 463b
00000100: 1e07 8ebe 05c5 4f3e 0ea7 213e 42dc 9abe
00000110: 6415 c8bd 10a2 09be 81b6 a3be 8665 bfbd
00000120: f851 f9bd bec3 153e f985 9bbd 1d0d ffbc
00000130: 08b5 c53b 1efc 68be a043 c53d e85a ec3d
00000140: bc7a ebbc 976a 9bbd 6131 6ebe af70 e33d
00000150: f15d bf3d 6e8d b3bd 65bd 113e c6b8 92bc
00000160: 6341 923e 004a d43d 198e 84be 86a8 583c
00000170: 9407 1d3d 9825 85be 44ea 7cbe 8d81 2e3d
00000180: 94a4 5dbd 1f81 503e 0c1d ba3d 0825 733c
00000190: 73b3 2b3d 253f 873e dee2 1d3e 811e 833e
000001a0: 4025 1abe 71d0 26bd 879b 7a3e 3396 88bd
000001b0: a430 6a3c a8c6 8b3d d8f6 183d 7578 bdba
000001c0: 3467 833c 5a68 073d 3db3 233e 56b0 bfbd
000001d0: 78af ffbb af13 f4bc 0496 7b3d 7841 1d3b
000001e0: 3aa3 9dbd e29b 1a3e ad24 0ebd aa22 febc
000001f0: db84 3dbc c42e 463e 1035 afbb 2837 8cbc
00000200: bcdb 873d 2750 bd3c d125 f23d b66e 883e
00000210: 8937 593c b10a fd3d 7927 433e f28a 8f3d
00000220: 860f 753d aafd c7bd 53e4 e33d 53fe 253d
00000230: 1d7e a73b be51 e73d a207 b4bd 1541 493e
00000240: f2b5 40bd d59c 0a3d 3680 4a3e 6644 0c3e
00000250: b2a3 753c cb16 d23d f81b 76be ca04 623e
00000260: 511b 2ebd 10cb 0fbe 22c1 113e d871 5ebc
00000270: 1cf5 df3d 9139 293e 7791 5b3e 1d36 6b3c
00000280: 177d 4abe 49e2 b4bc 2895 e93d 7180 afbd
00000290: 41ea 603c 0649 2d3d 7165 77bc 013f bc3d
000002a0: b0a8 323e ded6 1bbd c709 8bbc 0177 f8bc
000002b0: dc31 fa3b b293 a5bd 3c52 643d a725 fc3d
000002c0: 7ca8 cc3c 8171 dcbd 0290 13be a42d a73c
000002d0: 51bf 583d 41be 1abe a485 f5bd 6d79 493d
000002e0: 78bf 70be 079d 7bbd e883 a13d b708 51bc
000002f0: 4482 7e3b 4f5f d6bd cfef 44bb ed38 83bc
00000300: 4d27 1d3b 39df 12ba 9a00 793b 153f b1bc
00000310: ae06 603b 1429 8ebc 5ee2 6f3c 140c 9cbc
00000320: b6c3 6fbd 885c 6c3b 1d33 143c 2de8 183c
00000330: 21f1 a7b8 a708 c2bc a5c4 473c 8b15 95bc
00000340: 9188 d5b9 3cdd 713c c8f1 b63a 9464 f6bc
00000350: 730e 0bbb 99ff ddbb 20b5 633c 73a6 de3c
00000360: c178 a23c aa77 df3c 27da 233d 8cfd 0aba
00000370: 5342 0dbc 6b55 84bc 77df 69bb c2ca 0e3b
00000380: caac 043e 6830 843a 0fe2 493e cac0 b53d
00000390: 6cb7 d23d b511 7d3e 5e26 1b3e 5558 f9bd
000003a0: 7296 1e3e 8335 533d 9033 c73c fa86 c1bc
000003b0: a896 c03a e0c4 df3d ffa8 c1bd f67d 6e3d
000003c0: e17f 9abc cf1c 593d 6c6f 8f3e 98d4 673e
000003d0: 4936 823d ac61 0b3d 16da 5fbc 22ef 243e
000003e0: 26c0 953d 4f3d 82be 1cb4 433e 8e98 593c
000003f0: 544e 613e e4ab 343e f22b 8b3e db48 b9bb

convs.1.nn.0.bias f4 [32]
-0.18317868 -0.15943046 -0.15792891 -0.14144455 0.021039015 -0.012601164 -0.114944115 0.11994919
-0.10001341 -0.019175794 0.15049921 -0.06706829 0.0037397933 -0.08489708 -0.08758987 -0.032313883
-0.062981606 -0.11886368 0.3166159 -0.049864933 -0.13529463 -0.078597456 -0.042683538 -0.088390045
-0.08483907 -0.059590768 -0.039159328 -0.08278584 -0.093875974 -0.07178291 -0.11356657 -0.04555999
00000000: 3193 3bbe bd41 23be 1eb8 21be d7d6 10be
00000010: 035a ac3c 1d75 4ebc d267 ebbd eca7 f53d
00000020: d5d3 ccbd 8e16 9dbc 771c 1a3e 1a5b 89bd
00000030: 5217 753b 85de adbd 5162 b3bd 905b 04bd
00000040: 80fc 80bd cd6e f3bd 7b1b a23e 2c3f 4cbd
00000050: ad8a 0abe b4f7 a0bd efd4 2ebd d705 b5bd
00000060: 1bc0 adbd 7315 74bd 8865 20bd 9f8b a9bd
00000070: 0c42 c0bd eb02 93bd 9795 e8bd 1d9d 3abd

convs.1.nn.2.weight f4 [32, 32]
-0.07889465 -0.026282098 -0.1398061 -0.060428474 0.17380214 0.056834057 0.006206135 0.11954001
0.02198808 -0.098934 0.07771482 -0.014998439 -0.0066491175 0.37902865 0.25237104 0.121453896
-0.12746492 -0.048835147 0.032838024 0.12929738 -0.07156995 -0.06392998 -0.010770518 0.010877812
0.0052038254 0.043536942 0.14022128 0.0042679626 0.018729359 0.021732904 0.0024181681 -0.21081577
-0.014913312 -0.024690075 0.19959278 0.10020601 0.17438404 -0.1584161 -0.03383934 -0.042133864
-0.16206405 -0.19783692 0.12429428 0.042410206 0.20300241 0.14919287 -0.03857407 -0.13198353
-0.51001316 0.018318754 0.095076084 -0.059328634 0.035721947 0.14366145 0.05276328 -0.00133373
-0.0041165557 0.034362346 -0.13485114 -0.00223189 -0.024059752 -0.15036874 0.039867975 0.09687089
0.00075235666 0.005727087 -0.034001194 -0.11493139 0.030417982 -0.17419748 0.0008034087 -0.05023075
-0.11874125 -0.016643628 -0.023925206 -0.17211951 0.14976616 -0.19388872 -0.012179062 -0.08018914
-0.21962503 -0.10321243 0.16639794 -0.05872812 -0.019065311 0.14869267 -0.1824816 -0.00102744
-0.035360273 -0.23577636 -0.2576532 -0.014836909 -0.010296552 -0.07465903 -0.027758837 0.24002473
0.21348336 0.029479071 0.018741006 0.07355344 0.12266563 0.030312853 0.0052268635 0.0625154
0.11629667 0.0854475 0.116835654 -0.07406916 -0.015795842 0.19745183 0.17730746 0.05020541
-0.054434426 0.051031727 0.14731371 -0.027095899 0.109737545 0.004154166 -0.052436095 -0.0042932983
0.0011567085 0.048970986 0.05288604 0.0007099004 -0.0015418158 0.014801907 -0.0740316 0.013904353
-0.08935268 -0.011152376 -0.09978072 -0.122655384 -0.34019193 0.14334536 -0.00031424165 -0.40081504
-0.002189269 0.22436371 -0.16175346 -0.009966266 -0.12186555 -0.24709283 -0.07507022 0.20396118
0.18024479 -0.09005149 -0.1212218 -0.10738012 -0.31137782 -0.15357292 -0.14925212 -0.03278219
-0.11013268 -0.12257953 -0.23629652 0.011870672 -0.0062342244 -0.057671126 -0.071786866 -0.056064244
0.037592087 -0.02603891 0.015948566 0.029061778 -0.095090255 0.027331587 0.029146938 -0.06618658
-0.07901072 -0.14809304 -0.0671307 -0.15676634 0.0030655938 -0.09622379 -0.09832601 0.010829798
-0.044761017 0.15744676 -0.14800595 -0.09531594 0.15617287 0.026626902 -0.1430697 0.0051445956
-0.011108822 -0.0259962 -0.1011901 0.004248563 -0.0031789325 0.24728219 -0.019958923 0.1979253
-0.09242241 0.00027548434 0.053408094 -0.063080885 0.2071261 0.031541873 0.00800238 0.15805116
0.069031306 0.09850574 0.22878653 -0.105855145 0.013324585 0.2860912 0.20074749 -0.046548277
-0.12618664 -0.051954024 0.032442737 0.03533173 -0.050734717 0.020978708 -0.011316054 -0.005338601
0.09373713 0.16231363 0.11606671 -0.003931032 0.020128021 0.02815927 0.06442538 0.0030753694
0.21944249 0.098150484 0.016915675 0.38227156 -0.14579578 0.005706405 0.0013838115 -0.07144333
-0.05473296 -0.03356863 0.0986191 -0.02619238 -0.061461154 -0.08486608 -0.0778725 0.09022777
-0.0758322 0.054196727 -0.21498547 0.021676816 0.1302489 -0.023347422 -0.06028841 -0.014107915
0.06999225 0.26112053 0.014241463 -0.00645281 0.024656564 0.06951486 -0.053277582 0.05064485
00000000: 8593 a1bd 8e4d d7bc 5529 0fbe d983 77bd
00000010: 30f9 313e d4ca 683d d55c cb3b 65d1 f43d
00000020: 5920 b43c e99d cabd f328 9f3d 03bc 75bc
00000030: d7e0 d9bb 0b10 c23e c736 813e d2bc f83d
00000040: 2a86 02be 5d07 48bd 2a81 063d 8866 043e
00000050: 4493 92bd b9ed 82bd d476 30bc da38 323c
00000060: da84 aa3b cb53 323d 2b96 0f3e 44da 8b3b
00000070: 506e 993c 3409 b23c 217a 1e3b 17e0 57be
00000080: f756 74bc d742 cabc 0d62 4c3e cf38 cd3d
00000090: bb91 323e d537 22be 1f9b 0abd 8f94 2cbd
000000a0: 1ef4 25be c395 4abe 008e fe3d 53b6 2d3d
000000b0: dddf 4f3e 04c6 183e d8ff 1dbd b126 07be
000000c0: 3990 02bf 3611 963c 40b7 c23d 9502 73bd
000000d0: 2d51 123d fd1b 133e 4f1e 583d 8dd0 aeba
000000e0: 2ce4 86bb 88bf 0c3d 6b16 0abe e744 12bb
000000f0: f518 c5bc 43fa 19be 9a4c 233d 3f64 c63d
00000100: cd39 453a 4aaa bb3b d644 0bbd 2661 ebbd
00000110: 222f f93c d360 32be d89b 523a c2be 4dbd
00000120: 9d2e f3bd 3858 88bc cbfe c3bc 1940 30be
00000130: 4d5c 193e c48a 46be b08a 47bc 343a a4bd
00000140: 62e5 60be 0a61 d3bd 3964 2a3e e68c 70bd
00000150: db2e 9cbc e442 183e 75dc 3abe 2aab 86ba
00000160: efd5 10bd 5c6f 71be 1feb 83be 8216 73bc
00000170: dfb2 28bc d5e6 98bd 8066 e3bc 0bc9 753e
00000180: 629b 5a3e 187e f13c bd86 993c 30a3 963d
00000190: 1e38 fb3d a952 f83c 1c46 ab3b 1308 803d
000001a0: f32c ee3d 19ff ae3d 8847 ef3d 92b1 97bd
000001b0: 4866 81bc d030 4a3e 1690 353e 30a4 4d3d
000001c0: a2f6 5ebd a506 513d 68d9 163e 38f8 ddbc
000001d0: 14be e03d ac1f 883b 3bc7 56bd ccae 8cbb
000001e0: b29c 973a cd95 483d 089f 583d 9c18 3a3a
000001f0: c116 caba b383 723c e19d 97bd 15cf 633c
00000200: 8afe b6bd 75b8 36bc d659 ccbd bf32 fbbd
00000210: a32d aebe 20c9 123e cdc0 a4b9 a137 cdbe
00000220: d779 0fbb 9abf 653e b3a2 25be 8d49 23bc
00000230: a594 f9bd e705 7dbe 6abe 99bd 33db 503e
00000240: 1792 383e ea6c b8bd 2343 f8bd 1cea dbbd
00000250: ea6c 9fbe 3842 1dbe 8cd5 18be 9e46 06bd
00000260: 3e8d e1bd fa0a fbbd b7f7 71be 357d 423c
00000270: 7748 ccbb 8f38 6cbd fe04 93bd 9fa3 65bd
00000280: 29fa 193d 8d4f d5bc 91a6 823c f712 ee3c
00000290: aebe c2bd 7ee6 df3c 8fc5 ee3c d48c 87bd
000002a0: 5fd0 a1bd b4a5 17be d27b 89bd 5b87 20be
000002b0: 21e8 483b fa10 c5bd 265f c9bd 776f 313c
000002c0: 5457 37bd b939 213e df8e 17be 0135 c3bd
000002d0: c8eb 1f3e a920 da3c dd80 12be ff93 a83b
000002e0: c701 36bc fcf5 d4bc c13c cfbd 8837 8b3b
000002f0: a355 50bb 8b37 7d3e e580 a3bc eeac 4a3e
00000300: f647 bdbd e26e 9039 72c2 5a3d 8d30 81bd
00000310: dd18 543e 0d32 013d 6a1c 033c 2ad8 213e
00000320: 4960 8d3d 61bd c93d 0447 6a3e 95ca d8bd
00000330: 5c4f 5a3c 8c7a 923e c090 4d3e 68a9 3ebd
00000340: 1237 01be becd 54bd ade2 043d 01b8 103d
00000350: 35cf 4fbd 8adb ab3c f866 39bc 6eef aebb
00000360: 41f9 bf3d 8b35 263e 62b4 ed3d e3cf 80bb
00000370: 85e3 a43c 45ae e63c 74f1 833d 238c 493b
00000380: 88b5 603e 1f03 c93d be92 8a3c 19b9 c33e
00000390: 7d4b 15be cbfc ba3b 0261 b53a e150 92bd
000003a0: ab2f 60bd 437f 09bd d0f8 c93d 6791 d6bc
000003b0: b1be 7bbd 44ce adbd 9e7b 9fbd 56c9 b83d
000003c0: ea4d 9bbd 63fd 5d3d 2725 5cbe 9493 b13c
000003d0: f85f 053e 1843 bfbc fbf0 76bd e224 67bc
000003e0: 1958 8f3d 97b1 853e 0655 693c 1872 d3bb
000003f0: 90fc c93c cf5d 8e3d 9839 5abd f970 4f3d

convs.1.nn.2.bias f4 [32]
-0.12976226 0.092317306 0.015622001 0.0038592916 -0.015594693 0.21136619 -0.017067654 0.09553678
0.12718996 -0.2563621 -0.011755398 -0.13379148 -0.20107079 0.18226226 -0.13125305 -0.024074754
-0.036180593 -0.24284613 -0.0030817066 -0.019088656 0.1288567 -0.10649181 -0.031043082 0.020513449
-0.17244016 -0.017419735 -0.27576053 -0.17510727 0.10668802 -0.067127496 -0.08706811 -0.11869756
00000000: 66e0 04be db10 bd3d 6cf3 7f3c 2bec 7c3b
00000010: e280 7fbc 6170 583e 77d1 8bbc caa8 c33d
00000020: 163e 023e e541 83be b699 40bc a200 09be
00000030: 80e5 4dbe f5a2 3a3e 3367 06be 6b38 c5bc
00000040: 1a32 14bd a8ac 78be 75f6 49bb d05f 9cbc
00000050: 03f3 033e 6118 dabd 104e febc d20b a83c
00000060: 2794 30be d5b3 8ebc 7c30 8dbe 524f 33be
00000070: 407f da3d 247a 89bd c450 b2bd b517 f3bd

convs.1.nn.4.module.weight f4 [32]
0.95275897 1.1772398 0.7023468 0.43143168 0.9519385 0.7065524 0.7294141 0.91821724
0.68677765 0.9098455 0.71950626 0.51728225 0.6276987 1.0718801 1.0338392 0.5240106
0.2986518 0.89113307 0.86442155 0.5666157 0.62788415 0.8592485 0.78409684 0.1133984
1.0586358 0.4169978 1.0413542 0.8237531 0.80361664 0.55971277 0.9319204 0.73723876
00000000: 03e8 733f cbaf 963f 00cd 333f 9de4 dc3e
00000010: 3eb2 733f 9ee0 343f e2ba 3a3f 4910 6b3f
00000020: a9d0 2f3f a2eb 683f 9031 383f 9c6c 043f
00000030: ddb0 203f 5e33 893f d854 843f 8f25 063f
00000040: e4e8 983e 4c21 643f bb4a 5d3f ba0d 113f
00000050: 04bd 203f b6f7 5b3f 92ba 483f 6c3d e83d
00000060: 6181 873f bc80 d53e 184b 853f 7ce1 523f
00000070: d2b9 4d3f 5649 0f3f 5692 6e3f aebb 3c3f

convs.1.nn.4.module.bias f4 [32]
-0.02860997 0.10898037 0.07351668 -0.0947402 -0.05102058 0.07721627 -0.026440525 -0.027003858
-0.2227668 0.04000246 -0.021135759 0.20424113 0.15890186 0.055909265 0.032094784 -0.030830925
-0.009529193 0.07105259 -0.0086376425 -0.026866432 -0.044047747 0.07076219 0.022253804 0.020451881
0.0048366785 -0.037749983 0.048490986 0.0077051627 -0.050556153 -0.057746615 0.0939274 0.1251818
00000000: 755f eabc 1a31 df3d ea8f 963d 2607 c2bd
00000010: f5fa 50bd 9023 9e3d cd99 d8bc 3237 ddbc
00000020: fb1c 64be 9fd9 233d e624 adbc 9624 513e
00000030: 2bb7 223e 1d01 653d d275 033d 2391 fcbc
00000040: 5520 1cbc 0584 913d e684 0dbc fe16 dcbc
00000050: 696b 34bd c4eb 903d 9c4d b63c b48a a73c
00000060: 007d 9e3b ba9f 1abd 7c9e 463d 977b fc3b
00000070: f813 4fbd b787 6cbd 025d c03d a82f 003e

convs.1.nn.4.module.running_mean f4 [32]
1.0284195 0.5421668 0.080580324 1.1630265 0.015561705 0.26366356 1.2750388 0.571322
0.53204215 0.06685093 0.6812987 0.48199454 0.06968622 0.085758105 0.099785484 0.078367345
3.9889642e-10 0.11132383 1.5168266 6e-45 0.6331928 0.7828429 0.1213324 0.5686106
0.3568591 0.7406375 0.12914808 0.2791221 1.4484499 0.6784669 0.24028154 0.14255272
00000000: 40a3 833f 72cb 0a3f 4c07 a53d 0dde 943f
00000010: 86f6 7e3c e9fe 863e 7934 a33f 2942 123f
00000020: ea33 083f 24e9 883d 9769 2e3f fdc7 f63e
00000030: a6b7 8e3d f2a1 af3d 555c cc3d 0f7f a03d
00000040: ae4b db2f c0fd e33d 6027 c23f 0400 0000
00000050: ec18 223f 6468 483f 1f7d f83d 7790 113f
00000060: 3cb6 b63e 6b9a 3d3f 653f 043e 18e9 8e3e
00000070: ce66 b93f 02b0 2d3f 5d0c 763e 57f9 113e

convs.1.nn.4.module.running_var f4 [32]
5.2128735 0.3926488 0.031261913 2.7760255 0.006566864 0.24978247 4.9354215 0.9588276
0.40421873 0.046972446 0.8694828 0.61384225 0.033361744 0.014484055 0.084982894 0.019775243
7.5612775e-13 0.14280146 4.045332 6e-45 1.5859966 2.7718287 0.092493996 0.5555156
0.20204647 0.8749613 0.1820648 0.6826472 3.3312273 0.96921414 0.4468736 0.21002515
00000000: dccf a640 4309 c93e 7e0c 003d 67aa 3140
00000010: d92e d73b fac6 7f3e f9ee 9d40 ba75 753f
00000020: c2f5 ce3e 2e66 403d 6d96 5e3f c424 1d3f
00000030: 53a6 083d 884e 6d3c 830b ae3d b1ff a13c
00000040: bfd4 542b 8c3a 123e 5c73 8140 0400 0000
00000050: f001 cb3f a465 3140 7e6d bd3d 4536 0e3f
00000060: 45e5 4e3e 77fd 5f3f 326f 3a3e f8c1 2e3f
00000070: d432 5540 6b1e 783f 9ecc e43e d510 573e

convs.2.nn.0.weight f4 [32, 32]
0.061174687 0.10615746 0.03638043 0.055494834 -0.007495219 -0.041490033 0.065536216 -0.02190936
-0.041967742 0.036661107 0.09660344 0.023560315 -0.005208733 0.039829426 0.020346072 0.056597967
-0.012071371 0.019644829 0.040151536 -0.004548338 0.005531238 0.042834222 -0.026378036 0.02710879
0.022224864 0.068100765 0.0062669846 -0.028446853 0.050048716 0.016246457 -0.0486586 -0.040149562
0.22034007 0.13612233 0.13680623 0.07689407 0.104620524 0.04274118 0.13632645 0.02468094
-0.09405641 -0.19793984 0.06145178 -0.010665225 -0.017515197 -0.05179885 -0.16525246 -0.01352865
0.026636485 -0.11301082 0.17129059 0.09386338 0.07841336 0.042611938 -0.09987855 -0.01634803
-0.11316575 0.09713786 -0.20703733 0.070085876 0.10664242 0.024830053 0.026397467 0.111746065
-0.1773067 -0.32303843 -0.19827382 -0.092489116 -0.07154552 -0.09428809 -0.101089634 -0.23389311
0.16115513 0.15520936 -0.108638555 -0.19070147 -0.18587272 -0.03202945 0.010391184 -0.079925306
-0.017421829 -0.16217476 -0.15566295 -0.15120383 0.13853492 -0.16756651 -0.14620447 0.009078557
-0.12635586 -0.09429026 0.04218703 -0.07255855 -0.10023254 0.04295983 -0.27791554 -0.049002454
0.09491632 -0.2004943 -0.18655437 0.024622163 -0.2763244 -0.15505117 0.12198738 -0.17433843
0.24335188 0.028495172 0.07856125 0.035238113 -0.06271401 0.034036096 -0.10910861 0.14322785
-0.12498632 0.1837501 0.09684146 -0.014380025 0.25687888 0.019605074 -0.28679618 -0.039998744
-0.2760309 0.018915026 -0.081565626 -0.068672255 -0.0042768028 0.11131022 0.011591353 0.084098876
0.2087344 0.24880278 -0.11036341 0.13887388 -0.01729222 0.10715584 0.055964172 0.1351864
-0.0768262 -0.04132167 0.09009242 -0.0271661 0.05862411 0.043298736 0.1745373 -0.055494305
0.04784015 -0.112892725 0.15026127 0.031347565 -0.07973213 0.055159476 0.07105993 0.011575363
0.21937647 -0.0033938356 0.22893281 0.09735329 0.16265541 0.014073234 0.06401241 0.0231049
-0.15458214 -0.1640911 -0.05211775 -0.07910797 0.10822519 -0.14845943 -0.110340275 -0.26075947
0.09958819 0.18079707 -0.23480032 -0.1696931 -0.18152665 -0.10818906 -0.10625655 -0.10208647
0.011940598 -0.11006633 -0.10220674 0.022804096 -0.0039536543 -0.11010889 -0.16281034 -0.07804416
-0.05907225 -0.09313413 0.13133287 -0.3261973 -0.24008828 -0.12349002 -0.40290606 -0.20127846
-0.09800649 -0.10104271 0.056652363 -0.10731814 0.04787 -0.20091961 -0.075627044 -0.056582116
0.0054799244 -0.07990251 -0.0073910733 0.1087362 0.111730985 -0.050263803 -0.40674406 0.12385037
-0.015453678 -0.109581836 0.01701394 -0.102518976 0.013612925 -0.011463973 -0.29485026 -0.00079781737
-0.034159347 0.03447124 -0.0016461592 -0.01751187 -0.036808416 -0.017889349 0.035864674 0.11448957
-0.10374371 0.013144181 -0.10334023 0.046872787 -0.14960416 -0.17364946 -0.09369081 -0.18414447
0.08054718 0.11363558 0.0021151307 -0.084542096 0.07256112 0.07016415 -0.003920187 -0.017335685
0.010527341 -0.1765906 -0.16696714 0.057184376 -0.029648691 -0.12204022 0.03180883 0.06805781
0.03178403 -0.03848503 0.03162904 -0.24456336 -0.036766727 0.08940084 -0.2854894 -0.1112599
00000000: 4f92 7a3d 1569 d93d a503 153d 8d4e 633d
00000010: 749a f5bb 74f1 29bd da37 863d 427b b3bc
00000020: 5ee6 2bbd f529 163d 06d8 c53d 9001 c13c
00000030: 05ae aabb 2e24 233d ceac a63c 45d3 673d
00000040: 00c7 45bc 31ee a03c f075 243d 390a 95bb
00000050: 633f b53b f072 2f3d c016 d8bc 4113 de3c
00000060: eb10 b63c 6a78 8b3d 475b cd3b 6009 e9bc
00000070: e2ff 4c3d 4a17 853c 3d4e 47bd de73 24bd
00000080: d4a0 613e a763 0b3e ef16 0c3e a37a 9d3d
00000090: 4943 d63d 6011 2f3d 2999 0b3e af2f ca3c
000000a0: a6a0 c0bd beb0 4abe ddb4 7b3d 32bd 2ebc
000000b0: 087c 8fbc 082b 54bd f137 29be 45a7 5dbc
000000c0: c234 da3c 3772 e7bd cd66 2f3e 723b c03d
000000d0: 2f97 a03d db89 2e3d 208d ccbd 4eec 85bc
000000e0: 72c3 e7bd 37f0 c63d 9801 54be 2f89 8f3d
000000f0: 5767 da3d 6568 cb3c 803f d83c 1fdb e43d
00000100: e38f 35be 4b65 a5be 4b08 4bbe ef6a bdbd
00000110: 7586 92bd 1d1a c1bd 1508 cfbd ad81 6fbe
00000120: da05 253e 34ef 1e3e e47d debd 3f47 43be
00000130: 6b55 3ebe 5031 03bd c93f 2a3c e1af a3bd
00000140: 39b8 8ebc 2411 26be 1c66 1fbe 2dd5 1abe
00000150: 19dc 0d3e 8e96 2bbe a0b6 15be 3abe 143c
00000160: 6e63 01be 401b c1bd 4fcc 2c3d 9499 94bd
00000170: b846 cdbd a6f6 2f3d f24a 8ebe ccb6 48bd
00000180: 7d63 c23d 614e 4dbe 1c08 3fbe 6bb4 c93c
00000190: 647a 8dbe bcc5 1ebe 85d4 f93d c685 32be
000001a0: 3c31 793e b56e e93c b8e4 a03d d755 103d
000001b0: 3470 80bd 6f69 0b3d 5674 dfbd 52aa 123e
000001c0: d4f8 ffbd fc28 3c3e d154 c63d 329a 6bbc
000001d0: a185 833e d29a a03c f3d6 92be b9d5 23bd
000001e0: ec53 8dbe aff3 9a3c e10b a7bd 0aa4 8cbd
000001f0: 6c24 8cbb 9df6 e33d a9e9 3d3c 083c ac3d
00000200: 78be 553e 28c6 7e3e 3606 e2bd f434 0e3e
00000210: 6aa8 8dbc 8574 db3d b03a 653d 4e6e 0a3e
00000220: 0e57 9dbd e940 29bd 6082 b83d 718b debc
00000230: d61f 703d 045a 313d e8b9 323e ff4d 63bd
00000240: 08f4 433d 4d34 e7bd 17de 193e 4e66 003d
00000250: 994a a3bd e7ee 613d de87 913d 97a6 3d3c
00000260: 3aa4 603e 1d6b 5ebb 5d6d 6a3e 2961 c73d
00000270: 248f 263e 6c93 663c f018 833d 7d46 bd3c
00000280: c84a 1ebe 7f07 28be 6c79 55bd 5c03 a2bd
00000290: 2ba5 dd3d c005 18be 15fa e1bd 4482 85be
000002a0: e5f4 cb3d de22 393e 7f6f 70be 07c4 2dbe
000002b0: 1fe2 39be 3a92 ddbd 099d d9bd b612 d1bd
000002c0: 7fa2 433c 756a e1bd c451 d1bd a8cf ba3c
000002d0: a88d 81bb c580 e1bd c1b7 26be 9ed5 9fbd
000002e0: bef5 71bd 1bbd bebd 207c 063e 5503 a7be
000002f0: b4d9 75be 56e8 fcbd b449 cebe f11b 4ebe
00000300: a0b7 c8bd 7bef cebd 4f0c 683d 9dc9 dbbd
00000310: 5513 443d dfbd 4dbe 5ae2 9abd a6c2 67bd
00000320: f090 b33b eda3 a3bd d130 f2bb 16b1 de3d
00000330: 37d3 e43d 6be1 4dbd c240 d0be 43a5 fd3d
00000340: 6c31 7dbc 716c e0bd d160 8b3c 78f5 d1bd
00000350: bf08 5f3c 63d3 3bbc 9df6 96be 9e24 51ba
00000360: acea 0bbd b731 0d3d f0c3 d7ba 0e75 8fbc
00000370: 6cc4 16bd af8c 92bc d6e6 123d 8279 ea3d
00000380: 9577 d4bd b15a 573c 0ba4 d3bd aefd 3f3d
00000390: d531 19be 2ad1 31be f8e0 bfbd 5e90 3cbe
000003a0: ebf5 a43d c5b9 e83d 019e 0a3b 6824 adbd
000003b0: ed9a 943d 39b2 8f3d e974 80bb 9103 8ebc
000003c0: de7a 2c3c 2bd4 34be 6ff9 2abe 2a3a 6a3d
000003d0: d0e1 f2bc 39f0 f9bd fa49 023d e561 8b3d
000003e0: f92f 023d 7ba2 1dbd 748d 013d d16e 7abe
000003f0: b598 16bd ca17 b73d ab2b 92be 3bdc e3bd

convs.2.nn.0.bias f4 [32]
-0.056504905 -0.09482008 -0.028766586 -0.016296027 -0.27856657 0.09280621 0.11354621 -0.03657396
-0.029559765 -0.04711561 -0.22193713 -0.08836248 -0.111906916 -0.09764265 -0.17766044 -0.17316796
-0.15974954 0.18822366 -0.07045413 -1.4654419e-06 -3.3702667e-22 -0.093615495 -0.084083 -0.02972741
-0.0033082475 0.08390447 0.28732806 0.0059572337 0.068009004 -0.23933852 -0.04780771 -0.10727566
00000000: b071 67bd 0831 c2bd e7a7 ebbc 3f7f 85bc
00000010: 47a0 8ebe 2f11 be3d ea8a e83d 94ce 15bd
00000020: 5227 f2bc 4cfc 40bd 7d43 63be 63f7 b4bd
00000030: 742f e5bd dff8 c7bd 9eec 35be f152 31be
00000040: 6295 23be b4bd 403e 414a 90bd 33b0 c4b5
00000050: 5ab8 cb9b 7bb9 bfbd b533 acbd e686 f3bc
00000060: 2fcf 58bb 1bd6 ab3d aa1c 933e e634 c33b
00000070: 4e48 8b3d 2815 75be 04d2 43bd 57b3 dbbd

convs.2.nn.2.weight f4 [32, 32]
-0.026723154 0.001119933 0.21904884 -0.1821286 -0.037847392 0.24868953 0.10198859 0.20907049
0.034320347 -0.040858947 0.10052845 0.037303716 0.023600627 0.06202178 -0.0029848441 0.06524724
0.018510986 0.24605016 -0.0060597775 -9.232829e-06 -4.92e-42 0.007271179 -0.028331088 -0.01641486
-0.10175958 -0.04880217 0.14066844 -0.06153886 0.027732009 -0.2435412 0.005072124 0.32637772
-0.062116195 0.10571927 -0.009353661 0.10411872 -0.05131226 -0.040360197 -0.049769867 -0.009807729
0.027462345 0.16378003 0.027429868 0.025877787 0.14925784 0.042088166 0.06530046 -0.00094485143
-0.00056976895 -0.086961456 0.0073544513 1.2532466e-05 5.5077e-41 0.07563092 0.07477586 -0.054620855
0.13402902 -0.17800438 -0.11818512 0.058982596 -0.014712694 -0.074775405 -0.09142627 -0.10142127
2.4340418e-23 -0.0002871466 -4.0459294e-09 -0.0007179141 -3.1813145e-06 -1.22552065e-05 -7.378297e-05 -1.4694267e-05
-3.3810084e-05 -0.0016526951 -7.253026e-19 -6.679198e-22 -0.00014526267 -1.5138767e-22 -2.5950387e-05 4.205646e-23
-7.075901e-23 -0.0001448416 4.1921328e-21 -8.1854e-41 -1.5808e-40 5.379502e-05 -0.0087180715 -0.00079614454
-0.0027673647 -0.004112504 -0.0082291365 -0.003256 -0.0054446096 -0.00015232521 4.8024e-41 -7.30235e-06
0.025828367 0.025189513 -0.0008234053 0.021280909 0.026061231 -0.0010716738 -0.0153249595 -0.003644731
0.009328736 0.03245269 -6.917578e-05 0.0005947913 0.03325581 -0.0008379981 -0.010406545 -0.0010252445
-7.511031e-05 -0.043745905 -0.00052887126 4.6878e-41 -7.7255e-41 0.0005418444 0.044493854 -0.0017122461
0.031029891 0.012369832 -0.0061227665 0.038345993 0.0034483885 0.04265152 0.006480077 -0.02003935
0.084622666 0.25873652 -0.046947498 0.106721245 0.077261515 -0.080818556 0.07612414 -0.019422917
0.0016102734 0.1448187 -0.006138807 -0.079984106 -0.013444915 0.07976349 -0.07323469 -0.0006457201
-0.0016293686 -0.09964542 -0.028504359 2.7181974e-07 3.403e-41 0.11307523 -0.18603313 0.033198956
0.011157871 0.0994256 0.10219191 0.09131617 0.10285064 0.026699211 0.046289846 -0.04684941
-0.08400671 0.0021877103 0.19947258 -0.1797619 -0.21882951 0.05722754 -0.18846649 0.12984565
0.110402666 -0.015364224 0.21806698 0.050099693 -0.030221123 -0.028095301 0.020824479 -0.048394103
-0.027943071 0.018184466 -0.03916064 1.2316374e-10 -2.7843338e-31 -0.016712343 -0.08665261 -0.0522953
-0.061866734 0.023240242 -0.27800122 -0.0109772775 -0.0074686515 -0.21106392 0.03889411 0.22032617
-0.020865962 0.08300315 -0.07640073 -0.0140343215 -0.033324074 0.07156996 0.15425502 0.02376043
0.0073990477 -0.06400173 0.022401609 -0.027129292 -0.056785762 0.107151225 0.037906587 0.0128604835
0.02945053 -0.11760617 0.016058253 1.1617696e-08 -1.7239e-41 -0.040194545 -0.110188425 0.26736724
-0.14584142 0.03165701 0.26432073 -0.07945268 0.1448891 -0.13861667 -0.077201314 0.061686166
0.106341556 0.045348227 0.095313124 -0.22268072 -0.15775312 0.09908097 -0.14083672 0.104526885
0.2111217 0.016821867 0.03628993 -0.11995465 0.048814245 0.046008173 -0.0393844 0.027035711
0.024848718 0.1407596 0.0035685557 6.035463e-05 -1.6439e-41 0.02648523 -0.1596091 0.14155225
-0.010774753 0.081781425 0.11252792 -0.043106746 0.3220599 -0.053382672 0.039450407 0.18960495
00000000: 84ea dabc b7ca 923a 574e 603e eb7f 3abe
00000010: de05 1bbd 78a8 7e3e 65df d03d 9316 563e
00000020: 7e93 0c3d b65b 27bd dce1 cd3d c8cb 183d
00000030: 1a56 c13c 8d0a 7e3d 609d 43bb 58a0 853d
00000040: 5aa4 973c 93f4 7b3e 1991 c6bb b3e6 1ab7
00000050: b70d 0080 1243 ee3b 9916 e8bc 7578 86bc
00000060: 5467 d0bd c9e4 47bd 630b 103e 2c10 7cbd
00000070: 3d2e e33c dd62 79be 0f34 a63b fb1a a73e
00000080: 8d6d 7ebd 5883 d83d 1940 19bc 323c d53d
00000090: ce2c 52bd bc50 25bd 7ddb 4bbd 99b0 20bc
000000a0: b6f8 e03c f4b5 273e 9ab4 e03c a7fd d33c
000000b0: 0cd7 183e a464 2c3d 3fbc 853d e8af 77ba
000000c0: 8c5c 15ba d918 b2bd 9cfd f03b 8842 5237
000000d0: 8899 0000 62e4 9a3d 1624 993d 1eba 5fbd
000000e0: e73e 093e c846 36be 0a0b f2bd bc97 713d
000000f0: 830d 71bc d923 99bd b23d bbbd f4b5 cfbd
00000100: f567 eb19 2a8c 96b9 5f04 8bb1 6632 3cba
00000110: 917e 55b6 b69b 4db7 eebb 9ab8 6587 76b7
00000120: 4dcf 0db8 3f9f d8ba 5112 56a1 cbdd 499c
00000130: a751 18b9 3704 379b 08b0 d9b7 605f 4b1a
00000140: b515 ab9a 9fe0 17b9 d25f 9e1d 2de4 0080
00000150: aab8 0180 f7a1 6138 3ed6 0ebc 5bb4 50ba
00000160: ad5c 35bb 2fc2 86bb 80d3 06bc 9e62 55bb
00000170: b268 b2bb 7db9 1fb9 df85 0000 b506 f5b6
00000180: 0396 d33c 3d5a ce3c cbd9 57ba 4d55 ae3c
00000190: 5d7e d53c 6877 8cba 8a15 7bbc 70dc 6ebb
000001a0: 8ed7 183c 1ded 043d 7712 91b8 c5eb 1b3a
000001b0: 3f37 083d 1aad 5bba 3780 2abc 7f61 86ba
000001c0: 8a84 9db8 e82e 33bd f3a3 0aba ad82 0000
000001d0: 5bd7 0080 900a 0e3a 303f 363d 726d e0ba
000001e0: 6632 fe3c d6aa 4a3c 7da1 c8bb b010 1d3d
000001f0: 5cfe 613b 5cb3 2e3d d356 d43b 9029 a4bc
00000200: a64e ad3d 1d79 843e 054c 40bd ab90 da3d
00000210: 493b 9e3d 3384 a5bd f9e6 9b3d cf1c 9fbc
00000220: cf0f d33a 5a4b 143e 0c28 c9bb b5ce a3bd
00000230: 1048 5cbc 0a5b a33d 12fc 95bd 8b45 29ba
00000240: 8a90 d5ba e612 ccbd f981 e9bc 9fee 9134
00000250: dd5e 0000 fc93 e73d 787f 3ebe a1fb 073d
00000260: 81cf 363c a69f cb3d fe49 d13d f903 bb3d
00000270: 5ba3 d23d 4eb8 da3c 6c9a 3d3d 2be5 3fbd
00000280: b60b acbd b05f 0f3b 8a42 4c3e 8113 38be
00000290: d814 60be 6d67 6a3d 5cfd 40be 42f6 043e
000002a0: cb1a e23d 3aba 7bbc f34c 5f3e 5635 4d3d
000002b0: 4a92 f7bc 1e28 e6bc 1998 aa3c e538 46bd
000002c0: dee8 e4bc 97f7 943c e866 20bd 836b 072f
000002d0: aeb6 b48c 53e8 88bc ec76 b1bd 9933 56bd
000002e0: f967 7dbd 5262 be3c 2d56 8ebe 0ada 33bc
000002f0: 97bb f4bb 2421 58be 6e4f 1f3d 2f9d 613e
00000300: 18ef aabc 8efd a93d fc77 9cbd 36f0 65bc
00000310: d37e 08bd 4593 923d 07f5 1d3e 3ca5 c23c
00000320: b673 f23b 5713 83bd 9483 b73c 403e debc
00000330: 3098 68bd 1a72 db3d f043 1b3d c7b4 523c
00000340: 3d42 f13c 81db f0bd 998c 833c 2b97 4732
00000350: 0e30 0080 09a3 24bd 78aa e1bd 5ce4 883e
00000360: 7457 15be c8aa 013d 0c55 873e 16b8 a2bd
00000370: cf5d 143e 87f1 0dbe b91b 9ebd a2aa 7c3d
00000380: 9ac9 d93d 10bf 393d 8733 c33d 6a06 64be
00000390: 098a 21be f7ea ca3d 8037 10be 3112 d63d
000003a0: 4930 583e 03ce 893c c0a4 143d c9aa f5bd
000003b0: 72f1 473d 1173 3c3d 8951 21bd ff79 dd3c
000003c0: 8a8f cb3c 4923 103e 6ede 693b 4a25 7d38
000003d0: d32d 0080 8ef7 d83c 9170 23be 13f3 103e
000003e0: 9788 30bc 057d a73d 0a75 e63d b390 30bd
000003f0: 09e5 a43e caa7 5abd c096 213d cd27 423e

convs.2.nn.2.bias f4 [32]
0.0053723445 -0.14872655 -0.01458845 -0.056131072 -0.11892546 -0.14432085 0.06765706 -0.028189735
0.0018318504 0.059546847 -0.21673615 -0.011715092 -0.009062041 0.05088699 -0.05141233 0.02422492
0.025147738 -0.14194189 -0.022630775 0.066939585 0.1642683 0.05922177 -0.007162752 0.0014119819
-0.006235806 -0.02182604 0.0445104 -0.023255551 -0.018903982 0.04055132 -0.048362426 -1.1239504e-09
00000000: 7e0a b03b c64b 18be 6504 6fbc b2e9 65bd
00000010: 318f f3bd d8c8 13be c98f 8a3d 29ee e6bc
00000020: b31a f03a 65e7 733d 15f0 5dbe a8f0 3fbc
00000030: f478 14bc e06e 503d bc95 52bd 5773 c63c
00000040: a102 ce3c 3759 11be 2d64 b9bc 9f17 893d
00000050: f335 283e 8792 723d 85b5 eabb 4012 b93a
00000060: bb55 ccbb 86cc b2bc 8a50 363d 6d82 bebc
00000070: 86dc 9abc 2419 263d ae17 46bd 7d79 9ab0

convs.2.nn.4.module.weight f4 [32]
0.92952436 0.8457285 -0.022835366 0.16518787 1.1823411 1.0299695 0.610016 1.0648857
-0.0076752454 0.23182218 1.0706849 0.0008042503 0.0014800117 0.98780894 0.31578723 0.29577166
1.0549507 0.59184694 0.99574023 0.92584276 0.85321903 0.41856518 0.03873662 0.014893779
1.01411 0.8441828 0.78785354 0.7761005 0.19482206 0.026719505 0.83814746 -2.646389e-09
00000000: 4ff5 6d3f aa81 583f 3c11 bbbc 0227 293e
00000010: f456 973f 0ad6 833f 022a 1c3f 2d4e 883f
00000020: a080 fbbb cb62 6d3e 340c 893f 53d4 523a
00000030: f4fc c13a 0ce1 7c3f ddae a13e 626f 973e
00000040: a008 873f 4883 173f d5e8 7e3f 0804 6d3f
00000050: 906c 5a3f 2d4e d63e 4aaa 1e3d 0905 743c
00000060: 5bce 813f 5d1c 583f c5b0 493f 86ae 463f
00000070: 6f7f 473e dde2 da3c d590 563f c5db 35b1
